checkpoint.pth (torch_old, 28419 bytes, 6 tensors)

fc1.weight f4 [64, 37]
00000000: b077 9dbe 037e 6bbf 1631 64bf 803c bd3e
00000010: 56b4 e6bf 4503 1ebe b8f3 42bf 15d6 82bf
00000020: 44c9 6abf fb1e d9bf 842b 19bc 5b47 87bf
00000030: d377 61bf c270 f5be c424 95bf aa2e 3c3e
00000040: 9344 3d3d ac4c 50bf 8c27 d4bf 6a18 aebf
00000050: ec3e 3cbe 1572 84bf f107 2dbf 945e b9bf
00000060: 96a2 0fc0 9e4c 56be 9508 5abf d4de b1bf
00000070: 6cf9 6ebf a942 cabf a041 22be 4081 a2bf
00000080: d8ce 96bf d09b 65bf 37e2 b4bf 4325 d3be
00000090: 8e0b f8bd a3d4 fc3d 200f 50bf 9194 bb3d
000000a0: 9e5b 25bf d476 47bf a7e1 01bf e96d f8be
000000b0: b28f 3bbe ca11 07bf c73b 85be ce51 69be
000000c0: 0ea5 d53b d6e4 27be 425f 04bf c9cd 8cbe
000000d0: 0c34 01bf 7dc2 e0be 4e01 8fbe 0bd4 603d
000000e0: 60a8 b5bf da10 77be d151 30bf bc01 adbd
000000f0: ef0f f0be 8710 aebe 96bb 83be 0e76 ffbe
00000100: 0454 0cbe df3d 0ebf 65fd dfbe 2ad6 34be
00000110: dd90 87be 8ca4 34bc 63f5 5fbe 2f84 b9be
00000120: 8d18 98be dd97 cdbd 229a 1b3d 5c03 14be
00000130: d530 54bd b2ad 90be 9a4f cdbd ae05 8e3d
00000140: 6eea 23bf 37a1 a6bd e213 4e3c 447a b2be
00000150: fdce 24be a40d afbd f89c 393e d9d3 f1bd
00000160: 0c5c c2bd 4f25 bbbe 588e 983c 83c2 0cbe
00000170: a885 a0bd 8a1c 673d 1b4c 9ebe 2e6b f5bd
00000180: 5bd0 28be e9d9 7fbc 1538 5ebe 7dfc 8bbe
00000190: 116b 923d d3f2 f1bd 289d 55bd b9f5 54be
000001a0: bc71 c3be a53b e1bd dbec a6be 480d 44be
000001b0: ee4e 31be 5390 823d cc7a 1dbc 401d 00bd
000001c0: ae22 42be ac15 d7bb 3397 ddbe d906 95be
000001d0: 7f49 74bd 2370 91be e9b5 8abe c41c afbe
000001e0: 19a9 a4be 244a 76bd 5a69 29be 5c8c bbbe
000001f0: 21b4 febe 4ae4 83be 90ce b0be 22ec 48be
00000200: 16ee 9dbe ead1 e5be 5864 bbbe 2113 30bd
00000210: 015a 4ebe fd5b 96be 12ba 8ebe 6ad3 5ebe
00000220: a4b5 d7be 0ceb 0abe 96a1 12bd c54d 50be
00000230: 51c9 8abe 4b2e 8bbe 8233 30be a87b 34be
00000240: 6d83 79be 42fd 14bf 85fd 393e 42ef 9a3c
00000250: 915c 98bf 00d8 a6bf 2e4b 96be c6e3 44bf
00000260: d1b2 e5bf bc83 53bf 0ce9 55bf 3d42 f5bd
00000270: 8428 91bf 573d afbf c89b 68bf 856a c0bf
00000280: 81d9 93bf d1ba bd3e cedc cbbf 2fe4 64bf
00000290: a23e f4be 8202 303b 2e2c 70bf a48a d4bf
000002a0: abbe 15bf dba4 6abf a149 c9be 6f79 843e
000002b0: 4c88 0a3f 88ac 4fbf 6de2 60bf 4797 70bc
000002c0: 0dde 90bf f0b3 04c0 5343 1cbf f41b 02bf
000002d0: a061 e2be cc62 8abf 8964 40bf 0243 973e
000002e0: 4667 33bd 86ab 783e d9d1 223e 99a3 9abe
000002f0: d33e 8f3e b6e1 eabe 7f01 7c3f 3f29 9f3e
00000300: 5650 5a3f d230 be3f b2b9 083f 1e17 bb3e
00000310: fbde c13e c1d5 1abd 9570 d73e df0c 553f
00000320: 8f4b 133e cfaf e1bc 066b 293d 6621 013f
00000330: c806 063f bb5e 1c3e c6bb 9b3d f5d0 49be
00000340: 5858 b7be d1a6 b1be edad 02bf c42f 2b3e
00000350: 839c 39be 849a a1be 2c96 053f 1c85 8940
00000360: 5aff 0ec1 d237 0fc1 d008 34c1 b2b5 b9c1
00000370: 5e59 b63e 086e 453e 275e ebbd cca9 51be
00000380: fe7a 8abe 2b41 8fbd f169 99be fda5 94bd
00000390: f66d 79be 66cc 9abe 0603 313e 33b9 62be
000003a0: d6ce d0bc 5992 ebbd 3b03 c0bd a9a6 1fbe
000003b0: e43e 91bd a52e fbbd 02d0 b0be 5950 a3bc
000003c0: 7c5b 90bd 880c cabd 7921 57be e105 22be
000003d0: ffbe c4bd 3bfe 79be b514 933d f5aa bdbe
000003e0: bd4d 40bd 741b 5bbe 1304 1bbe 1c2d 76be
000003f0: 8713 6cbd ac5a 26be a5f8 0dbe 9648 6ebe
-0.30755377 -0.91989154 -0.891374 0.3696022 -1.8023784 -0.15430935 -0.76153135 -1.0221583
-0.91713357 -1.696258 -0.009348754 -1.0568651 -0.8807346 -0.4793759 -1.1651845 0.18377176
0.046207976 -0.8136699 -1.6574569 -1.36012 -0.18383378 -1.0347315 -0.6759024 -1.4481988
-2.2442985 -0.20927665 -0.85169345 -1.3896127 -0.9334934 -1.5801593 -0.15845346 -1.2695694
-1.1781874 -0.89690876 -1.4131535 -0.41239366 -0.12111579 0.12345245 -0.8127308 0.09159196
-0.6459292 -0.7791569 -0.50734943 -0.48521355 -0.18316534 -0.5276152 -0.2602217 -0.22785112
0.00651992 -0.16395888 -0.5170785 -0.27500752 -0.5047004 -0.43898383 -0.27930683 0.05488972
-1.4192009 -0.24127522 -0.6887484 -0.084475964 -0.46887156 -0.33996984 -0.25729054 -0.49894756
-0.13703924 -0.5556316 -0.43748012 -0.17659822 -0.2647771 -0.011025559 -0.21870951 -0.3623366
-0.2970623 -0.10038731 0.03798879 -0.14454406 -0.051804382 -0.2825752 -0.100249484 0.06934677
-0.64029586 -0.08136218 0.012577983 -0.34858906 -0.16094585 -0.085475236 0.18126285 -0.11807985
-0.09490213 -0.36551902 0.018622562 -0.13746075 -0.07837993 0.0564237 -0.3091744 -0.119833335
-0.16485731 -0.015615919 -0.21701081 -0.2734107 0.071493275 -0.11813893 -0.05215183 -0.20796861
-0.3817271 -0.109977044 -0.3260258 -0.19145691 -0.17315266 0.06375184 -0.009611797 -0.031277895
-0.18958542 -0.006563863 -0.43279418 -0.29106787 -0.059640404 -0.28405866 -0.2709191 -0.34201634
-0.3216026 -0.0601293 -0.16544095 -0.36630523 -0.49746802 -0.25760108 -0.34532595 -0.19621328
-0.30845708 -0.44886714 -0.36599994 -0.042986993 -0.20151521 -0.29367056 -0.27876335 -0.21760336
-0.42130768 -0.13566226 -0.03579863 -0.20342167 -0.27106717 -0.27183756 -0.17207149 -0.17625296
-0.24366541 -0.5819894 0.18163116 0.018912915 -1.1903249 -1.3034668 -0.29354233 -0.76910055
-1.7945195 -0.82622886 -0.83558726 -0.119755246 -1.1340489 -1.3690594 -0.90862703 -1.5032507
-1.1550752 0.37056592 -1.5926759 -0.8941068 -0.47704035 0.0026856964 -0.9381741 -1.660481
-0.5849406 -0.916578 -0.39313987 0.25873896 0.5411422 -0.81122637 -0.878455 -0.014684505
-1.1317765 -2.0734825 -0.6104023 -0.50823903 -0.44215107 -1.08114 -0.75153404 0.2954331
-0.04379966 0.24284181 0.15900363 -0.3020294 0.2797762 -0.4587533 0.9843978 0.31086156
0.8527883 1.4858649 0.5340835 0.36541075 0.37865433 -0.037801508 0.4207808 0.83222765
0.14384292 -0.027549652 0.04136183 0.50441587 0.523541 0.15270512 0.07604174 -0.19708617
-0.35809588 -0.34697583 -0.5104664 0.1671744 -0.1812611 -0.315632 0.5218227 4.2974987
-8.937342 -8.951128 -11.2521515 -23.213718 0.35615057 0.19280255 -0.114925675 -0.20474929
-0.2704696 -0.06994852 -0.2996364 -0.07258222 -0.24358353 -0.3023407 0.1728631 -0.2214096
-0.025489252 -0.11502523 -0.09375616 -0.1559092 -0.070920736 -0.12264756 -0.34533697 -0.019935774
-0.07048699 -0.098656714 -0.21008863 -0.15822555 -0.09606742 -0.24413387 0.07181684 -0.37044492
-0.046949137 -0.21397191 -0.15138273 -0.24040645 -0.05763581 -0.16245526 -0.13864382 -0.23269877

fc1.bias f4 [64]
00000000: 9347 29bf 0d55 01bf e467 b6be b409 2cbf
00000010: 9ff2 03bf 87d6 ac3f d5fc a2be 15e6 75bf
00000020: 0207 86bf 41d3 5fbf 0056 a0be 41f9 01be
00000030: 46cb 38bf 91ec 2dbf 7b80 86bf c9db 02bf
00000040: 5311 4fbf 12f3 a7be d4b5 11bf a2b6 efbe
00000050: 4963 debe c254 0d3f 0214 52bf 48f4 a6bf
00000060: d8d8 4bbf c2a2 2bbf f6df b1be 6d2c 58bf
00000070: 92b7 45be 12bc 72be f54e 31bf 96a9 acbe
00000080: e598 55bf d749 9fbf e82c 87bf 9450 66bd
00000090: 72f0 d73f 49d9 54be 5452 6fbe 40ee 72bf
000000a0: abeb 02bf 04c3 85be d286 8dbe a16f 4fbf
000000b0: ee94 5fbf 074a 6bbf 68e9 fcbe 596f a9be
000000c0: 419a 97be 630b 3040 6a50 c2bf b06c 5abf
000000d0: ae6a 27bf c4b1 02bf f0f2 15bf af8b 93be
000000e0: 5559 ebbf 719b 54bf f734 20bf 533f 10bf
000000f0: cb58 08bf 6277 12bf 25aa 11be be35 23bf
-0.6612484 -0.505204 -0.35626137 -0.67202306 -0.51542085 1.3502969 -0.3183352 -0.960542
-1.0470889 -0.8743172 -0.31315613 -0.12692739 -0.7218517 -0.67939097 -1.0507959 -0.51116616
-0.8088581 -0.32802635 -0.5691807 -0.46819025 -0.43435124 0.55207455 -0.8206178 -1.3043299
-0.7962775 -0.67045224 -0.3474118 -0.8444279 -0.19308308 -0.23704556 -0.69261104 -0.33723134
-0.83436424 -1.2444409 -1.0560579 -0.05622919 1.6870253 -0.20786013 -0.2337125 -0.9489479
-0.5114085 -0.26125348 -0.27641922 -0.8102971 -0.87336624 -0.9190983 -0.49396825 -0.33092764
-0.29609874 2.750695 -1.518079 -0.85322094 -0.65397155 -0.510525 -0.5857382 -0.28817508
-1.8386637 -0.83049685 -0.6258082 -0.56346625 -0.5326049 -0.57213414 -0.14225061 -0.6375388

fc2.weight f4 [64, 64]
00000000: 3a9a 5ebd 3582 4cbd 7bca 033e d8c7 373d
00000010: 1712 5d3d 53c8 d0bd 86ef 74bd 78ab 98bd
00000020: ec8d bdbc 647c 90bc 3f7c 88bd fa7e 10be
00000030: 415a e5bd af23 763d 5ae8 cfbd 0bf0 7fbd
00000040: 9d2a f5bd f1a7 f9bd afd3 d9bd 7f6f c0bb
00000050: cabf dfbd 4cb3 b7bc da1f 753d 1f34 babb
00000060: 3462 12be 858f a2bd b9f6 343e a0cf de3c
00000070: fe90 2fbd 83e3 99bd 1f69 0cbe 7170 d1bd
00000080: 3f1f d93c 85ed e0bb 5bbd 223a 26b9 d7bc
00000090: 77fc eebd d540 113d 0674 863d 958a 21be
000000a0: 73d6 6bbd 3e59 b3bd fc12 aa3d c535 e5bd
000000b0: 70c0 663d bb2b f2bd 75fb 30be f038 613d
000000c0: be89 0abe 73a4 96bd e59f 01bf 6094 8fbd
000000d0: c9d4 2cbe 9191 30be c2ba 9e3c 5ab1 9dbd
000000e0: a09e f2bd d1a3 4ebd e623 2fbe 97a8 9fbe
000000f0: 27ba df3c f66d 8c3d af78 0ebe d17d 91bd
00000100: fb47 8a3d 45a2 c23d bea6 13be c6d2 c83d
00000110: c95c 023c bdcf 3ebe 2aab 96bb 963e 4abe
00000120: df4b 97bd 8b97 8dbd ec2c 9ebb e8f3 d73d
00000130: 7e6c 13be 578a 213d 7ac6 9fbd 0a13 f4bc
00000140: 65a4 99bc 9160 203c 5417 26be 83be a9bd
00000150: 37f3 973b 0105 11be 1b0e 1cbd d5f2 0bbe
00000160: 6b6f 18bd b7c8 4f3d 7d60 b2bd 905a d2bc
00000170: a31c 413d 6b01 13be 37db 46bd 6b86 1bbe
00000180: 18a2 1bbd fae6 4abd 9ccc 4ebd 9436 14be
00000190: e087 a6bd ff93 203d 638b af3c 85a0 a3bd
000001a0: d2b0 0cbc f1f5 713c 72d1 7cbd 4925 02be
000001b0: f1b5 2ebe e27b e5bd ccf1 f7bd 0802 b9bd
000001c0: b116 dabd 8817 1bbe c293 96bd df65 43bc
000001d0: 2f61 b0bd e275 15be 00bc 47bd 373f 333d
000001e0: 68c7 f4bd 3195 eb3c 432b b73c fb63 063d
000001f0: f60d 34be 4b26 1bbd 5909 c63b 3d2b 19bd
00000200: e864 28be 1e07 13be afc5 c03c 820a 48bd
00000210: 24a9 1dbe ad6e 1fbe e405 09be bd7a 70bc
00000220: e78b c13d fabc 04be 292b ff3d 5bb8 b13d
00000230: 865b debc ed17 b43d 1365 eebd 1328 08bd
00000240: a8ed 37be 28a9 74bd afe8 b438 d5a6 9fbd
00000250: c878 54be 9bdb 06bd ae73 8cbd 7114 0fbd
00000260: 739e e5bd 3234 a83e 73ae 3f3c 146a d93d
00000270: 416d 9e3d 1859 173d 08d9 11be 4296 24bd
00000280: d486 90be adaf d0bd 6bc6 3abe ff6f 313d
00000290: 5a33 e0bd d7c5 af3d c5e9 36bc 586f 83bd
000002a0: 896a 593d ee58 87bd 34e4 2bbd 8831 32be
000002b0: 7624 bcbd aee2 dfbc 25b0 bf3d 9873 3fbe
000002c0: 024b bfbd be50 e3bd e5c9 12be be3a adbd
000002d0: d847 7cbe d599 973c d44d 20be 8ae3 05be
000002e0: def2 21be 6c03 42be d389 28be 2a9c 8b3d
000002f0: 21cb c9bd 9cb3 0dbc 0c90 3e3d 1eaa eabc
00000300: 6775 92bd 479f 37be 920c 91bc 25dc 2cbe
00000310: 73cd aabd 5db7 5cbd c300 d0bd b212 cdbd
00000320: 4929 2cbe 4fac 5ebd 0ddf 9abd 5f4d 433d
00000330: f519 13be e0f6 0f3d 106e 5dbd 8684 d7bd
00000340: 9561 5abe 6606 98bd 6272 7abd 7f39 93bd
00000350: 6795 bfbc f5e9 0abe ab05 28bd 3aab 01bc
00000360: d37f 8b3c 4a7d 09bd da69 733b 06e9 e43b
00000370: 4fcc 653d d886 32be b433 2f3d 28ce 80bd
00000380: 7468 aabd a998 d2bd e1c0 ac3c ea13 803d
00000390: d5cf 4abe 0ec8 fdbd b8c9 303d 4f6b 1cbd
000003a0: cd6d 57bd c90c 143d bab8 66bd 7fde bdbd
000003b0: f6be 88bd c0f4 b2bd f040 ecbc f4e0 88bd
000003c0: de91 97bc 82f9 d4bc 5669 cebe da5c efbc
000003d0: 9f9d 863c 8fa7 693e de2a 95bd 4ba1 253d
000003e0: e653 2dbe 5503 e4bd a2a8 eebd d66d 603d
000003f0: 7a6a 39be 2678 49bd 0877 39be 1c52 83bd
-0.0543463 -0.049928863 0.12870209 0.04486832 0.05397233 -0.10194459 -0.05979874 -0.0745458
-0.023138963 -0.01763744 -0.06664323 -0.14110938 -0.11198855 0.060092624 -0.101517394 -0.062484782
-0.119710185 -0.121902354 -0.106360786 -0.0058726664 -0.10925253 -0.022424363 0.05984483 -0.005682483
-0.14295274 -0.079375304 0.17672242 0.027198613 -0.042862885 -0.075140975 -0.13711976 -0.102265246
0.026504157 -0.006864252 0.0006208026 -0.026333403 -0.116692476 0.03546222 0.065650985 -0.15775521
-0.05757756 -0.08757256 0.08304402 -0.11191896 0.056335866 -0.11824747 -0.17283423 0.05498594
-0.13529107 -0.07355585 -0.50634605 -0.07010722 -0.16878046 -0.17243029 0.019376162 -0.07699843
-0.118466616 -0.050449196 -0.17103538 -0.3118331 0.027310444 0.06856911 -0.13913225 -0.07104076
0.067520104 0.09503607 -0.14419076 0.09805827 0.007956692 -0.18633933 -0.004598041 -0.19750437
-0.07387518 -0.0691367 -0.0048271324 0.10544568 -0.14396855 0.03943857 -0.07801528 -0.029794235
-0.018755147 0.009788648 -0.16219836 -0.0828829 0.0046371478 -0.14162065 -0.03809939 -0.13666852
-0.03721563 0.050728526 -0.0870981 -0.02567795 0.04714645 -0.1435601 -0.048548903 -0.15187995
-0.03799638 -0.049536683 -0.0504881 -0.14473945 -0.08131385 0.03920364 0.02142877 -0.07989601
-0.008587079 0.01476811 -0.06172318 -0.12709536 -0.17061593 -0.112052694 -0.12106666 -0.090335906
-0.10648859 -0.15145695 -0.07352401 -0.011926143 -0.08612286 -0.1459575 -0.048763275 0.04376146
-0.11952096 0.028757663 0.022359496 0.032810193 -0.1758345 -0.037878316 0.006043595 -0.03739475
-0.16444743 -0.14358184 0.023531763 -0.048838146 -0.15396553 -0.15569563 -0.13381153 -0.014677701
0.094505124 -0.12962714 0.12459404 0.08677741 -0.027143251 0.08793626 -0.11640372 -0.033241343
-0.17961752 -0.059731632 8.6264095e-05 -0.077954926 -0.207492 -0.032924276 -0.06858002 -0.034931604
-0.112118624 0.32852322 0.011699307 0.10615936 0.07735682 0.0369502 -0.14242947 -0.04018236
-0.28227866 -0.101897575 -0.18239753 0.0433197 -0.109472945 0.08582657 -0.011164133 -0.064177215
0.053080115 -0.06608759 -0.04196568 -0.17401707 -0.09186642 -0.027329769 0.09359769 -0.1869644
-0.093404785 -0.11099385 -0.14334829 -0.0845847 -0.24636781 0.01850597 -0.15654689 -0.1307508
-0.15815303 -0.18946618 -0.16458826 0.06816895 -0.09853197 -0.008648779 0.046524093 -0.028645571
-0.07151299 -0.17931853 -0.01770619 -0.16880853 -0.083399676 -0.053885806 -0.10156395 -0.100133315
-0.16812624 -0.054363545 -0.07562075 0.04768121 -0.1436537 0.035147548 -0.054060042 -0.10523324
-0.21326287 -0.074230954 -0.06114424 -0.07188701 -0.02338667 -0.1356581 -0.04102103 -0.007914359
0.017028725 -0.03356675 0.003714195 0.0069857864 0.056103047 -0.17434251 0.042773917 -0.06289321
-0.08320704 -0.10283024 0.021088066 0.06253798 -0.19805844 -0.12391673 0.043161124 -0.038188275
-0.05259495 0.036145005 -0.056328513 -0.092709534 -0.06677048 -0.087380886 -0.028839558 -0.066835314
-0.018502172 -0.02599788 -0.4031474 -0.02921908 0.016432581 0.22817825 -0.07283567 0.040437024
-0.16926536 -0.11133448 -0.11653258 0.054792248 -0.18107024 -0.049186848 -0.18111813 -0.064121455

fc2.bias f4 [64]
00000000: 9318 86be aa70 17bf a11c 09bf 8951 b5be
00000010: 7910 60bf 71ea 97bf 3cdd 30bf abd7 01bf
00000020: fa64 21bf 46a3 72bf cdc8 0cbf 669b 8fbe
00000030: 2150 18bf 375a ccbe a24b 0dbf 8840 10bf
00000040: 4ef4 03bf 90e0 1abf 416e 69be 5017 42bf
00000050: 2e69 fbbe b5fe 57bf 0fa8 9cbe 951c 4cbf
00000060: f30e ebbe 593f 56be 8ccd bdbe f0e5 78be
00000070: 6d8f 38be 582f 1bbe ad5d f6be 3ea1 6fbe
00000080: b103 5dbf 6844 67bf 48e3 cebe d4d3 ccbe
00000090: 035c b8be b379 03bf 5d91 32bf 2ec3 e1be
000000a0: 61eb bebe 3505 40bd 0d3c 2fbf e5af 58bf
000000b0: f6ca 63bf 24a6 3bbf 6b9d f8be 2aa8 f3be
000000c0: d6d9 a43e 2cb6 b9be dddf 44bf 8de1 dbbe
000000d0: ce26 5cbe f805 42bf d42b 07bf 828c 91bf
000000e0: 7496 09bf fe6c 81bf 7b0b b6be 8ba4 5bbe
000000f0: 3f1e d6be 3751 9bbe c747 4fbf 64eb 57bf
-0.26190624 -0.59156287 -0.5355931 -0.3541377 -0.87525135 -1.1868421 -0.69087577 -0.5071971
-0.63044703 -0.94780385 -0.549939 -0.28048247 -0.59497267 -0.39912578 -0.5519353 -0.56348467
-0.51544654 -0.60498905 -0.22795965 -0.7581682 -0.49103683 -0.8437303 -0.3059697 -0.7973111
-0.45909843 -0.20922603 -0.37070882 -0.24306464 -0.18023463 -0.15154779 -0.48118344 -0.23401353
-0.8633376 -0.90338755 -0.40407777 -0.40005362 -0.360077 -0.51357573 -0.69753057 -0.44094223
-0.37288955 -0.046879966 -0.68451005 -0.84643394 -0.8898157 -0.73300385 -0.485576 -0.47589236
0.32197446 -0.362718 -0.7690409 -0.4294552 -0.21499178 -0.7579036 -0.5280125 -1.1371005
-0.537452 -1.0111387 -0.35555634 -0.21449487 -0.4181995 -0.303354 -0.809689 -0.8434355

fc3.weight f4 [4, 64]
00000000: 3559 ff3c b1ec 0cbe 5827 adba b193 a3be
00000010: e064 90be 9245 173e a40c 643e 544d 34bd
00000020: 72e1 9a3e 447a 9dbd 2422 a83d a661 c5bd
00000030: caf7 e7bd 3346 8ebb 447e a9bd 82d5 2cbe
00000040: c37e 8c3c 7361 dd3c 7a20 833d 3649 833d
00000050: 8eee c0bd d632 18be c933 7b3d 23fb 803d
00000060: 559d 14bd bf6f 77bc b8b3 7ebd 47a9 aa3c
00000070: dbe6 adbc eb92 0bbe 82f1 04bd d188 2bbb
00000080: ad36 143e 1d68 b7bc b3dd fc3b 2339 38bd
00000090: 8c7a 1c3e b0e3 efbc 5a2b 11be 4ac3 1fbf
000000a0: fe43 3ebe e168 653e 4e4a 833d a1ee ca3e
000000b0: bf60 c5bb 4444 883e ae3b cd3c 8060 543d
000000c0: b0df 5fbf be0f 0dbe 9ae1 a93d 2839 11be
000000d0: 9e8c 153e 0198 2bbd 550f 463e 7b2d 383e
000000e0: 0805 e5bd 4c3e 1b3c 78d1 ddbd 57c7 053c
000000f0: 114f 1bbe bcaf 0b3d 9145 363e 324b 8d3d
00000100: 3b81 b5be 0988 7abc a960 99bc 2b15 a9bd
00000110: af77 ba3c 43ac 33be 75dc 8b3e 95f7 6cbc
00000120: b8ee 0a3d abc4 9abe d198 db3e 7f59 82bd
00000130: cf9b 04be 7baf c43c 824e 7dbe 099b c6bd
00000140: 5dad d03c c822 413d bb2e 533d b9f4 82be
00000150: dcec 293e 95a4 59be 012c b8bc 60c0 913c
00000160: 927e 573d 107f 68be ab7d 393d 9de7 a2bd
00000170: 1311 01bd de86 c4b9 4727 acbc bafe 9fbd
00000180: 5442 c73d e1c3 76be 2d4d 753e 2d07 1c3e
00000190: 762e 0b3d c24a 1d3e 59e1 a0bb f81d 693e
000001a0: 90db c73e d36a 5e3e f1d1 a63d a4fc ae3b
000001b0: 1514 d33d 12d3 5cbd 57b7 cf3d 9cec 95be
000001c0: 36ac e7be 0e5c 813e d2c4 95bd 5de8 38bf
000001d0: 9bed 18ba a141 cbbd 0720 fabd ea45 78be
000001e0: 2556 a2be d2d4 783d 99df 2d3e 9a69 813c
000001f0: a4cb 2d3e 2173 c2bc 4a89 513c c863 9abe
00000200: 2b2b 53be 8291 0cbe cda9 7d3d 0feb cfbe
00000210: 5cd0 dd3d a763 163d 4626 0ebe 286d 433d
00000220: 99c7 9c3c ee99 913e 56d4 c13e dfe0 2e3d
00000230: 3763 be3e baad febd 42af 7abc c5b2 2a3c
00000240: 9d50 013d 7fff 3a3d c940 c93d b967 17be
00000250: 0d8f eebc 1dfc a7bc 6122 69bd 0eee a5bd
00000260: 7ce6 75be 33ef 743d 00e0 c6be b02a 633d
00000270: 48c0 4b3d 520f bb3d 8e3b 433d 7b87 87bd
00000280: 500d 9e3e 7cf0 5a3e 5657 e63d e37f bf3d
00000290: f5b5 6b3d 612e 62bd 1484 743c 849d b0bd
000002a0: c8e6 abbd c798 3f3e eb62 84bc 3543 373e
000002b0: 2b37 b3be d1c0 7ebd 079f f83c 0ab6 3d3d
000002c0: 3645 b4be 5f04 cbbd 7f99 3fbe 9499 11bb
000002d0: 6471 98bb 94a0 a03d 9f24 dd3c bd77 ee3e
000002e0: 3d6b 7b3d 42c1 f83b 50f0 0ebf 7c60 aabd
000002f0: 0cf6 bcbe 4b03 983b 27c7 a73b 1200 a7be
00000300: 3a4e 33bd 8915 f13c f6b0 bf3a 3fb1 61bd
00000310: 8704 17be 3be2 c93e 7738 e3bd 34b8 2e3e
00000320: 4532 2c3d 5a3b 10bd c9b3 00be cc33 8abc
00000330: 2b39 b2bd 4061 9b3e 9f44 eabd 0d1c 40bc
00000340: 93bc 143c 8ab6 9dbe d6c1 a6bd 8187 e1bd
00000350: 9c3d f43c 5959 edbd 0c98 37be 0c8f 033e
00000360: 30ed 9ebc 723d 543e fd7c 553e 2d05 133e
00000370: d8d6 25bc dab6 45bd 95ac 99be 55ec 393a
00000380: 55b8 dfbd 99d9 9e3e ddb6 c03e edae 52bc
00000390: 47ae b5be 7018 d33d e030 8e3d eaf7 f4be
000003a0: 68b0 8f3e 1238 343e 05db 76be c6da 833e
000003b0: c120 d1be 4235 90be 8ec2 863e c34c 12bd
000003c0: 986a afbe 3749 5e3d 2453 08be b68c 1ebc
000003d0: f38a 483d dc00 86bc 2603 a43e 1eba e5bd
000003e0: 6543 a63e 6afb c6bd db01 70bd c8c8 093e
000003f0: 7b1f d4bd 98e8 60bd f91f 8e3c 7904 5f3e
0.031170467 -0.13762166 -0.0013210578 -0.31948617 -0.28201962 0.14772633 0.22270447 -0.04401906
0.30250126 -0.07689336 0.08209637 -0.096377656 -0.11326559 -0.0043418645 -0.082760364 -0.16878322
0.017150288 0.027024006 0.06402679 0.06410448 -0.09420501 -0.14863142 0.061328683 0.062979005
-0.036282856 -0.015102326 -0.062183112 0.02083267 -0.021228245 -0.13630264 -0.032456882 -0.0026174078
0.14473982 -0.022388512 0.0077168583 -0.044976365 0.15281123 -0.029283375 -0.14176694 -0.6240736
-0.18580624 0.2240329 0.06410657 0.39635184 -0.006023496 0.26614583 0.025052872 0.051849842
-0.87450695 -0.13775536 0.08294983 -0.1418196 0.14604422 -0.04189301 0.19341786 0.179861
-0.111826 0.009475302 -0.108309686 0.008165202 -0.1516688 0.03410314 0.17799975 0.06899108
-0.35450158 -0.015291222 -0.018722849 -0.082559906 0.022762148 -0.17546181 0.27316633 -0.014463325
0.033919066 -0.3022817 0.42890027 -0.06364726 -0.12950061 0.024009457 -0.2473698 -0.09697539
0.025473291 0.04715231 0.051558238 -0.25577334 0.16594261 -0.2125419 -0.02248192 0.017791927
0.05261094 -0.2270472 0.045285862 -0.07954333 -0.031510424 -0.00037484517 -0.021014823 -0.07812257
0.09729448 -0.2409816 0.23955221 0.15237112 0.033979855 0.15360549 -0.004909676 0.22765338
0.390347 0.21720438 0.08145512 0.0053401757 0.10306565 -0.05391223 0.10142391 -0.2928208
-0.45248574 0.25265545 -0.07312931 -0.7222956 -0.0005833746 -0.09924627 -0.1221314 -0.2424542
-0.31706348 0.060749836 0.16979827 0.015797425 0.16972214 -0.023736538 0.01278908 -0.30154252
-0.20621936 -0.13727382 0.061929513 -0.40609023 0.10830757 0.03671613 -0.13881788 0.04771152
0.019138144 0.28437752 0.37857312 0.042694923 0.3718507 -0.124354795 -0.015300574 0.010418599
0.03157102 0.045653816 0.0982681 -0.14785661 -0.029120946 -0.02050596 -0.056917552 -0.08102046
-0.24013704 0.05979843 -0.38842773 0.05546063 0.04974392 0.091337815 0.047664218 -0.06617638
0.30869532 0.213808 0.11247127 0.09350564 0.057546575 -0.05522001 0.014924068 -0.08623794
-0.083936274 0.18710624 -0.016160449 0.17896731 -0.35003027 -0.062195603 0.030349268 0.046316184
-0.35209054 -0.09912943 -0.18710898 -0.0022216784 -0.004652189 0.07843128 0.026995001 0.46575728
0.061381567 0.0075913975 -0.5583544 -0.08319184 -0.3690647 0.0046390644 0.0051201764 -0.3261724
-0.043775775 0.029429214 0.0014624882 -0.055100676 -0.14747821 0.39430413 -0.11094754 0.17062455
0.04204013 -0.035212852 -0.12568583 -0.016870402 -0.0870231 0.30347633 -0.1143887 -0.011725438
0.009078163 -0.3080333 -0.0814244 -0.110121734 0.029814534 -0.11589307 -0.17929095 0.12847537
-0.01940021 0.20726565 0.2084846 0.14357443 -0.0101220235 -0.048270084 -0.30014482 0.0007092406
-0.109238304 0.3102539 0.37639514 -0.012859088 -0.35484526 0.103073955 0.06942916 -0.47845393
0.28064275 0.17599514 -0.24106987 0.25752848 -0.40845302 -0.28165632 0.26320308 -0.035717737
-0.34261012 0.054269042 -0.13312966 -0.009677103 0.048960637 -0.016357832 0.32033652 -0.1121714
0.32473293 -0.09715922 -0.05859552 0.13455498 -0.10357567 -0.05490932 0.01734923 0.2177905

fc3.bias f4 [4]
00000000: 2724 1940 3001 1340 1b44 1140 b28b 1240
2.3928316 2.2969475 2.2697818 2.2897763
